…
module.encoders.3.penet_blocks.2.norm3.weight
module.encoders.3.penet_blocks.2.norm3.bias
module.encoders.3.penet_blocks.2.se_block.excite.0.weight
module.encoders.3.penet_blocks.2.se_block.excite.0.bias
module.encoders.3.penet_blocks.2.se_block.excite.2.weight
module.encoders.3.penet_blocks.2.se_block.excite.2.bias
module.classifier.fc.weight
module.classifier.fc.bias
(/projectnb/ece601/kaggle-pulmonary-embolism/cliao25) [cliao25@scc-c14 PENet]$ python train_cliao25.py 
cuda
/projectnb/ece601/kaggle-pulmonary-embolism/meganmp/ckpts/penet_best.pth.tar
DataParallel(
  (module): PENetClassifier(
    (in_conv): Sequential(
      (0): Conv3d(3, 64, kernel_size=(7, 7, 7), stride=(1, 2, 2), padding=(3, 3, 3), bias=False)
      (1): GroupNorm(4, 64, eps=1e-05, affine=True)
      (2): LeakyReLU(negative_slope=0.01, inplace)
    )
    (max_pool): MaxPool3d(kernel_size=(3, 3, 3), stride=2, padding=1, dilation=1, ceil_mode=False)
    (encoders): ModuleList(
      (0): PENetEncoder(
        (penet_blocks): Sequential(
          (0): PENetBottleneck(
            (down_sample): Sequential(
              (0): Conv3d(64, 256, kernel_size=(1, 1, 1), stride=(1, 1, 1), bias=False)
              (1): GroupNorm(16, 256, eps=1e-05, affine=True)
            )
            (conv1): Conv3d(64, 128, kernel_size=(1, 1, 1), stride=(1, 1, 1), bias=False)
            (norm1): GroupNorm(8, 128, eps=1e-05, affine=True)
            (relu1): LeakyReLU(negative_slope=0.01, inplace)
            (conv2): Conv3d(128, 128, kernel_size=(3, 3, 3), stride=(1, 1, 1), padding=(1, 1, 1), groups=32, bias=False)
            (norm2): GroupNorm(8, 128, eps=1e-05, affine=True)
            (relu2): LeakyReLU(negative_slope=0.01, inplace)
            (conv3): Conv3d(128, 256, kernel_size=(1, 1, 1), stride=(1, 1, 1), bias=False)
            (norm3): GroupNorm(16, 256, eps=1e-05, affine=True)
            (relu3): LeakyReLU(negative_slope=0.01, inplace)
            (se_block): SEBlock(
              (squeeze): AdaptiveAvgPool3d(output_size=1)
              (excite): Sequential(
                (0): Linear(in_features=256, out_features=16, bias=True)
                (1): LeakyReLU(negative_slope=0.01, inplace)
                (2): Linear(in_features=16, out_features=256, bias=True)
                (3): Sigmoid()
              )
            )
          )
          (1): PENetBottleneck(
            (conv1): Conv3d(256, 128, kernel_size=(1, 1, 1), stride=(1, 1, 1), bias=False)
            (norm1): GroupNorm(8, 128, eps=1e-05, affine=True)
            (relu1): LeakyReLU(negative_slope=0.01, inplace)
            (conv2): Conv3d(128, 128, kernel_size=(3, 3, 3), stride=(1, 1, 1), padding=(1, 1, 1), groups=32, bias=False)
            (norm2): GroupNorm(8, 128, eps=1e-05, affine=True)
            (relu2): LeakyReLU(negative_slope=0.01, inplace)
            (conv3): Conv3d(128, 256, kernel_size=(1, 1, 1), stride=(1, 1, 1), bias=False)
            (norm3): GroupNorm(16, 256, eps=1e-05, affine=True)
            (relu3): LeakyReLU(negative_slope=0.01, inplace)
            (se_block): SEBlock(
              (squeeze): AdaptiveAvgPool3d(output_size=1)
              (excite): Sequential(
                (0): Linear(in_features=256, out_features=16, bias=True)
                (1): LeakyReLU(negative_slope=0.01, inplace)
                (2): Linear(in_features=16, out_features=256, bias=True)
                (3): Sigmoid()
              )
            )
          )
          (2): PENetBottleneck(
            (conv1): Conv3d(256, 128, kernel_size=(1, 1, 1), stride=(1, 1, 1), bias=False)
            (norm1): GroupNorm(8, 128, eps=1e-05, affine=True)
            (relu1): LeakyReLU(negative_slope=0.01, inplace)
            (conv2): Conv3d(128, 128, kernel_size=(3, 3, 3), stride=(1, 1, 1), padding=(1, 1, 1), groups=32, bias=False)
            (norm2): GroupNorm(8, 128, eps=1e-05, affine=True)
            (relu2): LeakyReLU(negative_slope=0.01, inplace)
            (conv3): Conv3d(128, 256, kernel_size=(1, 1, 1), stride=(1, 1, 1), bias=False)
            (norm3): GroupNorm(16, 256, eps=1e-05, affine=True)
            (relu3): LeakyReLU(negative_slope=0.01, inplace)
            (se_block): SEBlock(
              (squeeze): AdaptiveAvgPool3d(output_size=1)
              (excite): Sequential(
                (0): Linear(in_features=256, out_features=16, bias=True)
                (1): LeakyReLU(negative_slope=0.01, inplace)
                (2): Linear(in_features=16, out_features=256, bias=True)
                (3): Sigmoid()
              )
            )
          )
        )
      )
      (1): PENetEncoder(
        (penet_blocks): Sequential(
          (0): PENetBottleneck(
            (down_sample): Sequential(
              (0): Conv3d(256, 512, kernel_size=(1, 1, 1), stride=(2, 2, 2), bias=False)
              (1): GroupNorm(32, 512, eps=1e-05, affine=True)
            )
            (conv1): Conv3d(256, 256, kernel_size=(1, 1, 1), stride=(1, 1, 1), bias=False)
            (norm1): GroupNorm(16, 256, eps=1e-05, affine=True)
            (relu1): LeakyReLU(negative_slope=0.01, inplace)
            (conv2): Conv3d(256, 256, kernel_size=(3, 3, 3), stride=(2, 2, 2), padding=(1, 1, 1), groups=32, bias=False)
            (norm2): GroupNorm(16, 256, eps=1e-05, affine=True)
            (relu2): LeakyReLU(negative_slope=0.01, inplace)
            (conv3): Conv3d(256, 512, kernel_size=(1, 1, 1), stride=(1, 1, 1), bias=False)
            (norm3): GroupNorm(32, 512, eps=1e-05, affine=True)
            (relu3): LeakyReLU(negative_slope=0.01, inplace)
            (se_block): SEBlock(
              (squeeze): AdaptiveAvgPool3d(output_size=1)
              (excite): Sequential(
                (0): Linear(in_features=512, out_features=32, bias=True)
                (1): LeakyReLU(negative_slope=0.01, inplace)
                (2): Linear(in_features=32, out_features=512, bias=True)
                (3): Sigmoid()
              )
            )
          )
          (1): PENetBottleneck(
            (conv1): Conv3d(512, 256, kernel_size=(1, 1, 1), stride=(1, 1, 1), bias=False)
            (norm1): GroupNorm(16, 256, eps=1e-05, affine=True)
            (relu1): LeakyReLU(negative_slope=0.01, inplace)
            (conv2): Conv3d(256, 256, kernel_size=(3, 3, 3), stride=(1, 1, 1), padding=(1, 1, 1), groups=32, bias=False)
            (norm2): GroupNorm(16, 256, eps=1e-05, affine=True)
            (relu2): LeakyReLU(negative_slope=0.01, inplace)
            (conv3): Conv3d(256, 512, kernel_size=(1, 1, 1), stride=(1, 1, 1), bias=False)
            (norm3): GroupNorm(32, 512, eps=1e-05, affine=True)
            (relu3): LeakyReLU(negative_slope=0.01, inplace)
            (se_block): SEBlock(
              (squeeze): AdaptiveAvgPool3d(output_size=1)
              (excite): Sequential(
                (0): Linear(in_features=512, out_features=32, bias=True)
                (1): LeakyReLU(negative_slope=0.01, inplace)
                (2): Linear(in_features=32, out_features=512, bias=True)
                (3): Sigmoid()
              )
            )
          )
          (2): PENetBottleneck(
            (conv1): Conv3d(512, 256, kernel_size=(1, 1, 1), stride=(1, 1, 1), bias=False)
            (norm1): GroupNorm(16, 256, eps=1e-05, affine=True)
            (relu1): LeakyReLU(negative_slope=0.01, inplace)
            (conv2): Conv3d(256, 256, kernel_size=(3, 3, 3), stride=(1, 1, 1), padding=(1, 1, 1), groups=32, bias=False)
            (norm2): GroupNorm(16, 256, eps=1e-05, affine=True)
            (relu2): LeakyReLU(negative_slope=0.01, inplace)
            (conv3): Conv3d(256, 512, kernel_size=(1, 1, 1), stride=(1, 1, 1), bias=False)
            (norm3): GroupNorm(32, 512, eps=1e-05, affine=True)
            (relu3): LeakyReLU(negative_slope=0.01, inplace)
            (se_block): SEBlock(
              (squeeze): AdaptiveAvgPool3d(output_size=1)
              (excite): Sequential(
                (0): Linear(in_features=512, out_features=32, bias=True)
                (1): LeakyReLU(negative_slope=0.01, inplace)
                (2): Linear(in_features=32, out_features=512, bias=True)
                (3): Sigmoid()
              )
            )
          )
          (3): PENetBottleneck(
            (conv1): Conv3d(512, 256, kernel_size=(1, 1, 1), stride=(1, 1, 1), bias=False)
            (norm1): GroupNorm(16, 256, eps=1e-05, affine=True)
            (relu1): LeakyReLU(negative_slope=0.01, inplace)
            (conv2): Conv3d(256, 256, kernel_size=(3, 3, 3), stride=(1, 1, 1), padding=(1, 1, 1), groups=32, bias=False)
            (norm2): GroupNorm(16, 256, eps=1e-05, affine=True)
            (relu2): LeakyReLU(negative_slope=0.01, inplace)
            (conv3): Conv3d(256, 512, kernel_size=(1, 1, 1), stride=(1, 1, 1), bias=False)
            (norm3): GroupNorm(32, 512, eps=1e-05, affine=True)
            (relu3): LeakyReLU(negative_slope=0.01, inplace)
            (se_block): SEBlock(
              (squeeze): AdaptiveAvgPool3d(output_size=1)
              (excite): Sequential(
                (0): Linear(in_features=512, out_features=32, bias=True)
                (1): LeakyReLU(negative_slope=0.01, inplace)
                (2): Linear(in_features=32, out_features=512, bias=True)
                (3): Sigmoid()
              )
            )
          )
        )
      )
      (2): PENetEncoder(
        (penet_blocks): Sequential(
          (0): PENetBottleneck(
            (down_sample): Sequential(
              (0): Conv3d(512, 1024, kernel_size=(1, 1, 1), stride=(2, 2, 2), bias=False)
              (1): GroupNorm(64, 1024, eps=1e-05, affine=True)
            )
            (conv1): Conv3d(512, 512, kernel_size=(1, 1, 1), stride=(1, 1, 1), bias=False)
            (norm1): GroupNorm(32, 512, eps=1e-05, affine=True)
            (relu1): LeakyReLU(negative_slope=0.01, inplace)
            (conv2): Conv3d(512, 512, kernel_size=(3, 3, 3), stride=(2, 2, 2), padding=(1, 1, 1), groups=32, bias=False)
            (norm2): GroupNorm(32, 512, eps=1e-05, affine=True)
            (relu2): LeakyReLU(negative_slope=0.01, inplace)
            (conv3): Conv3d(512, 1024, kernel_size=(1, 1, 1), stride=(1, 1, 1), bias=False)
            (norm3): GroupNorm(64, 1024, eps=1e-05, affine=True)
            (relu3): LeakyReLU(negative_slope=0.01, inplace)
            (se_block): SEBlock(
              (squeeze): AdaptiveAvgPool3d(output_size=1)
              (excite): Sequential(
                (0): Linear(in_features=1024, out_features=64, bias=True)
                (1): LeakyReLU(negative_slope=0.01, inplace)
                (2): Linear(in_features=64, out_features=1024, bias=True)
                (3): Sigmoid()
              )
            )
          )
          (1): PENetBottleneck(
            (conv1): Conv3d(1024, 512, kernel_size=(1, 1, 1), stride=(1, 1, 1), bias=False)
            (norm1): GroupNorm(32, 512, eps=1e-05, affine=True)
            (relu1): LeakyReLU(negative_slope=0.01, inplace)
            (conv2): Conv3d(512, 512, kernel_size=(3, 3, 3), stride=(1, 1, 1), padding=(1, 1, 1), groups=32, bias=False)
            (norm2): GroupNorm(32, 512, eps=1e-05, affine=True)
            (relu2): LeakyReLU(negative_slope=0.01, inplace)
            (conv3): Conv3d(512, 1024, kernel_size=(1, 1, 1), stride=(1, 1, 1), bias=False)
            (norm3): GroupNorm(64, 1024, eps=1e-05, affine=True)
            (relu3): LeakyReLU(negative_slope=0.01, inplace)
            (se_block): SEBlock(
              (squeeze): AdaptiveAvgPool3d(output_size=1)
              (excite): Sequential(
                (0): Linear(in_features=1024, out_features=64, bias=True)
                (1): LeakyReLU(negative_slope=0.01, inplace)
                (2): Linear(in_features=64, out_features=1024, bias=True)
                (3): Sigmoid()
              )
            )
          )
          (2): PENetBottleneck(
            (conv1): Conv3d(1024, 512, kernel_size=(1, 1, 1), stride=(1, 1, 1), bias=False)
            (norm1): GroupNorm(32, 512, eps=1e-05, affine=True)
            (relu1): LeakyReLU(negative_slope=0.01, inplace)
            (conv2): Conv3d(512, 512, kernel_size=(3, 3, 3), stride=(1, 1, 1), padding=(1, 1, 1), groups=32, bias=False)
            (norm2): GroupNorm(32, 512, eps=1e-05, affine=True)
            (relu2): LeakyReLU(negative_slope=0.01, inplace)
            (conv3): Conv3d(512, 1024, kernel_size=(1, 1, 1), stride=(1, 1, 1), bias=False)
            (norm3): GroupNorm(64, 1024, eps=1e-05, affine=True)
            (relu3): LeakyReLU(negative_slope=0.01, inplace)
            (se_block): SEBlock(
              (squeeze): AdaptiveAvgPool3d(output_size=1)
              (excite): Sequential(
                (0): Linear(in_features=1024, out_features=64, bias=True)
                (1): LeakyReLU(negative_slope=0.01, inplace)
                (2): Linear(in_features=64, out_features=1024, bias=True)
                (3): Sigmoid()
              )
            )
          )
          (3): PENetBottleneck(
            (conv1): Conv3d(1024, 512, kernel_size=(1, 1, 1), stride=(1, 1, 1), bias=False)
            (norm1): GroupNorm(32, 512, eps=1e-05, affine=True)
            (relu1): LeakyReLU(negative_slope=0.01, inplace)
            (conv2): Conv3d(512, 512, kernel_size=(3, 3, 3), stride=(1, 1, 1), padding=(1, 1, 1), groups=32, bias=False)
            (norm2): GroupNorm(32, 512, eps=1e-05, affine=True)
            (relu2): LeakyReLU(negative_slope=0.01, inplace)
            (conv3): Conv3d(512, 1024, kernel_size=(1, 1, 1), stride=(1, 1, 1), bias=False)
            (norm3): GroupNorm(64, 1024, eps=1e-05, affine=True)
            (relu3): LeakyReLU(negative_slope=0.01, inplace)
            (se_block): SEBlock(
              (squeeze): AdaptiveAvgPool3d(output_size=1)
              (excite): Sequential(
                (0): Linear(in_features=1024, out_features=64, bias=True)
                (1): LeakyReLU(negative_slope=0.01, inplace)
                (2): Linear(in_features=64, out_features=1024, bias=True)
                (3): Sigmoid()
              )
            )
          )
          (4): PENetBottleneck(
            (conv1): Conv3d(1024, 512, kernel_size=(1, 1, 1), stride=(1, 1, 1), bias=False)
            (norm1): GroupNorm(32, 512, eps=1e-05, affine=True)
            (relu1): LeakyReLU(negative_slope=0.01, inplace)
            (conv2): Conv3d(512, 512, kernel_size=(3, 3, 3), stride=(1, 1, 1), padding=(1, 1, 1), groups=32, bias=False)
            (norm2): GroupNorm(32, 512, eps=1e-05, affine=True)
            (relu2): LeakyReLU(negative_slope=0.01, inplace)
            (conv3): Conv3d(512, 1024, kernel_size=(1, 1, 1), stride=(1, 1, 1), bias=False)
            (norm3): GroupNorm(64, 1024, eps=1e-05, affine=True)
            (relu3): LeakyReLU(negative_slope=0.01, inplace)
            (se_block): SEBlock(
              (squeeze): AdaptiveAvgPool3d(output_size=1)
              (excite): Sequential(
                (0): Linear(in_features=1024, out_features=64, bias=True)
                (1): LeakyReLU(negative_slope=0.01, inplace)
                (2): Linear(in_features=64, out_features=1024, bias=True)
                (3): Sigmoid()
              )
            )
          )
          (5): PENetBottleneck(
            (conv1): Conv3d(1024, 512, kernel_size=(1, 1, 1), stride=(1, 1, 1), bias=False)
            (norm1): GroupNorm(32, 512, eps=1e-05, affine=True)
            (relu1): LeakyReLU(negative_slope=0.01, inplace)
            (conv2): Conv3d(512, 512, kernel_size=(3, 3, 3), stride=(1, 1, 1), padding=(1, 1, 1), groups=32, bias=False)
            (norm2): GroupNorm(32, 512, eps=1e-05, affine=True)
            (relu2): LeakyReLU(negative_slope=0.01, inplace)
            (conv3): Conv3d(512, 1024, kernel_size=(1, 1, 1), stride=(1, 1, 1), bias=False)
            (norm3): GroupNorm(64, 1024, eps=1e-05, affine=True)
            (relu3): LeakyReLU(negative_slope=0.01, inplace)
            (se_block): SEBlock(
              (squeeze): AdaptiveAvgPool3d(output_size=1)
              (excite): Sequential(
                (0): Linear(in_features=1024, out_features=64, bias=True)
                (1): LeakyReLU(negative_slope=0.01, inplace)
                (2): Linear(in_features=64, out_features=1024, bias=True)
                (3): Sigmoid()
              )
            )
          )
        )
      )
      (3): PENetEncoder(
        (penet_blocks): Sequential(
          (0): PENetBottleneck(
            (down_sample): Sequential(
              (0): Conv3d(1024, 2048, kernel_size=(1, 1, 1), stride=(2, 2, 2), bias=False)
              (1): GroupNorm(128, 2048, eps=1e-05, affine=True)
            )
            (conv1): Conv3d(1024, 1024, kernel_size=(1, 1, 1), stride=(1, 1, 1), bias=False)
            (norm1): GroupNorm(64, 1024, eps=1e-05, affine=True)
            (relu1): LeakyReLU(negative_slope=0.01, inplace)
            (conv2): Conv3d(1024, 1024, kernel_size=(3, 3, 3), stride=(2, 2, 2), padding=(1, 1, 1), groups=32, bias=False)
            (norm2): GroupNorm(64, 1024, eps=1e-05, affine=True)
            (relu2): LeakyReLU(negative_slope=0.01, inplace)
            (conv3): Conv3d(1024, 2048, kernel_size=(1, 1, 1), stride=(1, 1, 1), bias=False)
            (norm3): GroupNorm(128, 2048, eps=1e-05, affine=True)
            (relu3): LeakyReLU(negative_slope=0.01, inplace)
            (se_block): SEBlock(
              (squeeze): AdaptiveAvgPool3d(output_size=1)
              (excite): Sequential(
                (0): Linear(in_features=2048, out_features=128, bias=True)
                (1): LeakyReLU(negative_slope=0.01, inplace)
                (2): Linear(in_features=128, out_features=2048, bias=True)
                (3): Sigmoid()
              )
            )
          )
          (1): PENetBottleneck(
            (conv1): Conv3d(2048, 1024, kernel_size=(1, 1, 1), stride=(1, 1, 1), bias=False)
            (norm1): GroupNorm(64, 1024, eps=1e-05, affine=True)
            (relu1): LeakyReLU(negative_slope=0.01, inplace)
            (conv2): Conv3d(1024, 1024, kernel_size=(3, 3, 3), stride=(1, 1, 1), padding=(1, 1, 1), groups=32, bias=False)
            (norm2): GroupNorm(64, 1024, eps=1e-05, affine=True)
            (relu2): LeakyReLU(negative_slope=0.01, inplace)
            (conv3): Conv3d(1024, 2048, kernel_size=(1, 1, 1), stride=(1, 1, 1), bias=False)
            (norm3): GroupNorm(128, 2048, eps=1e-05, affine=True)
            (relu3): LeakyReLU(negative_slope=0.01, inplace)
            (se_block): SEBlock(
              (squeeze): AdaptiveAvgPool3d(output_size=1)
              (excite): Sequential(
                (0): Linear(in_features=2048, out_features=128, bias=True)
                (1): LeakyReLU(negative_slope=0.01, inplace)
                (2): Linear(in_features=128, out_features=2048, bias=True)
                (3): Sigmoid()
              )
            )
          )
          (2): PENetBottleneck(
            (conv1): Conv3d(2048, 1024, kernel_size=(1, 1, 1), stride=(1, 1, 1), bias=False)
            (norm1): GroupNorm(64, 1024, eps=1e-05, affine=True)
            (relu1): LeakyReLU(negative_slope=0.01, inplace)
            (conv2): Conv3d(1024, 1024, kernel_size=(3, 3, 3), stride=(1, 1, 1), padding=(1, 1, 1), groups=32, bias=False)
            (norm2): GroupNorm(64, 1024, eps=1e-05, affine=True)
            (relu2): LeakyReLU(negative_slope=0.01, inplace)
            (conv3): Conv3d(1024, 2048, kernel_size=(1, 1, 1), stride=(1, 1, 1), bias=False)
            (norm3): GroupNorm(128, 2048, eps=1e-05, affine=True)
            (relu3): LeakyReLU(negative_slope=0.01, inplace)
            (se_block): SEBlock(
              (squeeze): AdaptiveAvgPool3d(output_size=1)
              (excite): Sequential(
                (0): Linear(in_features=2048, out_features=128, bias=True)
                (1): LeakyReLU(negative_slope=0.01, inplace)
                (2): Linear(in_features=128, out_features=2048, bias=True)
                (3): Sigmoid()
              )
            )
          )
        )
      )
    )
    (classifier): GAPLinear(
      (avg_pool): AdaptiveAvgPool3d(output_size=1)
      (fc): Linear(in_features=2048, out_features=1, bias=True)
    )
  )
)
module.in_conv.0.weight
module.in_conv.1.weight
module.in_conv.1.bias
module.encoders.0.penet_blocks.0.down_sample.0.weight
module.encoders.0.penet_blocks.0.down_sample.1.weight
module.encoders.0.penet_blocks.0.down_sample.1.bias
module.encoders.0.penet_blocks.0.conv1.weight
module.encoders.0.penet_blocks.0.norm1.weight
module.encoders.0.penet_blocks.0.norm1.bias
…
